Total Trainable Parameters: 10788929
Model Summary : DataParallel(
  (module): SeedGPT(
    (emb): Embedding(65, 384)
    (pos_tok): Embedding(256, 384)
    (blocks): Sequential(
      (0): Block(
        (head): MultiHead(
          (multihead): ModuleList(
            (0-5): 6 x Head(
              (Q): Linear(in_features=384, out_features=64, bias=False)
              (K): Linear(in_features=384, out_features=64, bias=False)
              (V): Linear(in_features=384, out_features=64, bias=False)
              (dropout): Dropout(p=0.2, inplace=False)
            )
          )
          (proj): Linear(in_features=384, out_features=384, bias=True)
          (dropout): Dropout(p=0.2, inplace=False)
        )
        (ff): FFNet(
          (ff): Sequential(
            (0): Linear(in_features=384, out_features=1536, bias=True)
            (1): ReLU()
            (2): Linear(in_features=1536, out_features=384, bias=True)
            (3): Dropout(p=0.2, inplace=False)
          )
        )
        (ln1): LayerNorm((384,), eps=1e-05, elementwise_affine=True)
        (ln2): LayerNorm((384,), eps=1e-05, elementwise_affine=True)
      )
      (1): Block(
        (head): MultiHead(
          (multihead): ModuleList(
            (0-5): 6 x Head(
              (Q): Linear(in_features=384, out_features=64, bias=False)
              (K): Linear(in_features=384, out_features=64, bias=False)
              (V): Linear(in_features=384, out_features=64, bias=False)
              (dropout): Dropout(p=0.2, inplace=False)
            )
          )
          (proj): Linear(in_features=384, out_features=384, bias=True)
          (dropout): Dropout(p=0.2, inplace=False)
        )
        (ff): FFNet(
          (ff): Sequential(
            (0): Linear(in_features=384, out_features=1536, bias=True)
            (1): ReLU()
            (2): Linear(in_features=1536, out_features=384, bias=True)
            (3): Dropout(p=0.2, inplace=False)
          )
        )
        (ln1): LayerNorm((384,), eps=1e-05, elementwise_affine=True)
        (ln2): LayerNorm((384,), eps=1e-05, elementwise_affine=True)
      )
      (2): Block(
        (head): MultiHead(
          (multihead): ModuleList(
            (0-5): 6 x Head(
              (Q): Linear(in_features=384, out_features=64, bias=False)
              (K): Linear(in_features=384, out_features=64, bias=False)
              (V): Linear(in_features=384, out_features=64, bias=False)
              (dropout): Dropout(p=0.2, inplace=False)
            )
          )
          (proj): Linear(in_features=384, out_features=384, bias=True)
          (dropout): Dropout(p=0.2, inplace=False)
        )
        (ff): FFNet(
          (ff): Sequential(
            (0): Linear(in_features=384, out_features=1536, bias=True)
            (1): ReLU()
            (2): Linear(in_features=1536, out_features=384, bias=True)
            (3): Dropout(p=0.2, inplace=False)
          )
        )
        (ln1): LayerNorm((384,), eps=1e-05, elementwise_affine=True)
        (ln2): LayerNorm((384,), eps=1e-05, elementwise_affine=True)
      )
      (3): Block(
        (head): MultiHead(
          (multihead): ModuleList(
            (0-5): 6 x Head(
              (Q): Linear(in_features=384, out_features=64, bias=False)
              (K): Linear(in_features=384, out_features=64, bias=False)
              (V): Linear(in_features=384, out_features=64, bias=False)
              (dropout): Dropout(p=0.2, inplace=False)
            )
          )
          (proj): Linear(in_features=384, out_features=384, bias=True)
          (dropout): Dropout(p=0.2, inplace=False)
        )
        (ff): FFNet(
          (ff): Sequential(
            (0): Linear(in_features=384, out_features=1536, bias=True)
            (1): ReLU()
            (2): Linear(in_features=1536, out_features=384, bias=True)
            (3): Dropout(p=0.2, inplace=False)
          )
        )
        (ln1): LayerNorm((384,), eps=1e-05, elementwise_affine=True)
        (ln2): LayerNorm((384,), eps=1e-05, elementwise_affine=True)
      )
      (4): Block(
        (head): MultiHead(
          (multihead): ModuleList(
            (0-5): 6 x Head(
              (Q): Linear(in_features=384, out_features=64, bias=False)
              (K): Linear(in_features=384, out_features=64, bias=False)
              (V): Linear(in_features=384, out_features=64, bias=False)
              (dropout): Dropout(p=0.2, inplace=False)
            )
          )
          (proj): Linear(in_features=384, out_features=384, bias=True)
          (dropout): Dropout(p=0.2, inplace=False)
        )
        (ff): FFNet(
          (ff): Sequential(
            (0): Linear(in_features=384, out_features=1536, bias=True)
            (1): ReLU()
            (2): Linear(in_features=1536, out_features=384, bias=True)
            (3): Dropout(p=0.2, inplace=False)
          )
        )
        (ln1): LayerNorm((384,), eps=1e-05, elementwise_affine=True)
        (ln2): LayerNorm((384,), eps=1e-05, elementwise_affine=True)
      )
      (5): Block(
        (head): MultiHead(
          (multihead): ModuleList(
            (0-5): 6 x Head(
              (Q): Linear(in_features=384, out_features=64, bias=False)
              (K): Linear(in_features=384, out_features=64, bias=False)
              (V): Linear(in_features=384, out_features=64, bias=False)
              (dropout): Dropout(p=0.2, inplace=False)
            )
          )
          (proj): Linear(in_features=384, out_features=384, bias=True)
          (dropout): Dropout(p=0.2, inplace=False)
        )
        (ff): FFNet(
          (ff): Sequential(
            (0): Linear(in_features=384, out_features=1536, bias=True)
            (1): ReLU()
            (2): Linear(in_features=1536, out_features=384, bias=True)
            (3): Dropout(p=0.2, inplace=False)
          )
        )
        (ln1): LayerNorm((384,), eps=1e-05, elementwise_affine=True)
        (ln2): LayerNorm((384,), eps=1e-05, elementwise_affine=True)
      )
      (6): LayerNorm((384,), eps=1e-05, elementwise_affine=True)
    )
    (lm): Linear(in_features=384, out_features=65, bias=True)
  )
)
[0] Training loss : 4.312288875579834 Evaluation loss : 4.315868391990661
[100] Training loss : 2.4746722769737244 Evaluation loss : 2.4928327679634092
[101] Training loss : 2.4746434402465822 Evaluation loss : 2.490965483188629
[200] Training loss : 2.3445903038978577 Evaluation loss : 2.373236408233643
[300] Training loss : 2.100712552070618 Evaluation loss : 2.1512166714668273
…
